app/assets/model_ablutomania.tflite (tflite, 276468 bytes, 10 tensors)

lstm_2/lstm_cell_2/bias f4 [400]
-0.017722346 -0.04309151 -0.010088335 0.028272092 0.028742507 -0.047161683 0.025690595 -0.028409583
-0.016256196 -0.015954599 -0.029612813 -0.027420929 -0.015225792 -0.015334308 0.030881857 -0.02507836
-0.024395188 -0.020604145 -0.039097678 -0.019259028 -0.029794509 -0.048915572 -0.023349203 -0.019337773
0.029510153 -0.008960526 -0.02951939 -0.020005632 -0.025641484 -0.022758637 -0.03420388 -0.022079691
-0.036476217 0.019430226 -0.0144963525 0.027109018 0.033596724 -0.023224274 -0.032693427 0.007937228
0.0039435066 -0.021589307 -0.030976841 0.021774583 -0.017575938 -0.022828737 -0.032153353 0.031046577
0.028812353 -0.03093693 -0.022305878 0.00089177454 -0.020917915 -0.030507559 -0.011531674 0.002825848
-0.013903425 -0.02967233 -0.006673572 -0.019652674 0.009648591 -0.014731663 -0.021147072 -0.02032999
0.033534087 -0.0122612445 -0.033717275 -0.014684779 -0.017240426 0.025660763 0.014108087 -0.022947032
0.019060249 -0.0038494105 -0.028037103 -0.03610272 -0.06636126 -0.02556847 -0.04085521 -0.026503092
-0.018817827 -0.020793177 -0.024639599 -0.029929735 -0.02280509 -0.030241456 -0.026389739 -0.013557831
-0.021096615 0.027228951 -0.0330706 -0.016728405 0.031871762 -0.043456808 -0.024129111 0.026656473
-0.022948382 -0.019013392 0.022275373 -0.01892918 0.9819639 0.9653068 0.9893061 1.0293316
1.0294261 0.95852745 1.0196611 0.97472495 0.9828674 0.98553544 0.9748182 0.97619486
0.9866932 0.9869082 1.032684 0.98243415 0.977145 0.98008096 0.9686432 0.9811961
0.9748132 0.9590606 0.9797977 0.9809401 1.0256113 0.9886737 0.9765718 0.98203677
0.9790093 0.9758811 0.97627777 0.97971386 0.967502 1.018952 0.9859186 1.0280079
1.0366358 0.98047835 0.9691599 1.0023808 0.9976623 0.980937 0.97586954 1.0217217
0.98459023 0.98104846 0.97560203 1.0270449 1.022376 0.9792778 0.9797276 0.99521756
0.98159987 0.97473645 0.98803425 0.9978164 0.9870643 0.97471654 0.9906123 0.9819958
1.0007756 0.99006027 0.97766703 0.9833509 1.0354884 0.98846835 0.9665217 0.98722976
0.9831931 1.0256672 1.0057263 0.9797926 1.0149428 0.9912058 0.9763231 0.9669458
0.961807 0.9799596 0.97234786 0.9777852 0.9836726 0.98089546 0.97714347 0.9744454
0.979337 0.97505236 0.9769074 0.9883082 0.9829748 1.0254896 0.9749162 0.98454136
1.0269142 0.9655199 0.98035437 1.0268257 0.97970164 0.9837906 1.0220172 0.983816
0.0057328893 -0.0015946799 -0.00870736 -0.019806694 0.023269048 -0.0027134467 0.029810876 0.018573679
-0.005715096 -0.010624186 0.0036305517 0.006877273 0.0011650595 0.005102878 0.019035563 0.0045286687
-0.0076009263 0.0094104 -0.0036923739 -0.004871885 0.0009053186 0.0054487544 -0.008882859 0.00077398575
0.034513775 -0.003083499 -0.0022984538 -0.0068100067 -0.010414288 0.008194422 0.0007979497 0.019791376
0.009820286 0.012050831 -0.0013852748 0.014903762 -0.02369978 0.002795685 -0.007427062 -0.017788019
-0.012721578 -0.0013580504 -0.0039921706 -0.01589781 0.0029189624 -0.0118778385 -0.0019279538 0.034268882
-0.029326977 0.0007587231 -0.014953502 0.024198271 -0.00019858264 -0.008799914 0.00019364402 -0.013780565
00000000: 742e 91bc b980 30bd 8b49 25bc e09a e73c
00000010: 6875 eb3c 9c2c 41bd 1575 d23c 37bb e8bc
00000020: b72b 85bc 38b3 82bc 9296 f2bc dba1 e0bc
00000030: 9a75 79bc c03c 7bbc f3fb fc3c 2271 cdbc
00000040: 6bd8 c7bc 06ca a8bc e324 20bd 1cc5 9dbc
00000050: 9d13 f4bc b25b 48bd d446 bfbc 406a 9ebc
00000060: 47bf f13c 2ccf 12bc a6d2 f1bc dae2 a3bc
00000070: 170e d2bc 5270 babc 5e19 0cbd 78e0 b4bc
00000080: 1668 15bd 232c 9f3c 1c82 6dbc bb13 de3c
00000090: b89c 093d d540 bebc 8be9 05bd 260b 023c
000000a0: 8838 813b 0fdc b0bc 25c3 fdbc 9c60 b23c
000000b0: 6afb 8fbc 5503 bbbc 3cb3 03bd 6455 fe3c
000000c0: e207 ec3c 726f fdbc d1ba b6bc fac5 693a
000000d0: 0c5c abbc fdea f9bc 59ef 3cbc dd31 393b
000000e0: 31cb 63bc 6313 f3bc fbad dabb a5fe a0bc
000000f0: 2015 1e3c 135d 71bc a03c adbc 148b a6bc
00000100: 0a5b 093d 63e3 48bc 201b 0abd 6d98 70bc
00000110: cb3b 8dbc 8536 d23c 9b25 673c 6afb bbbc
00000120: 3d24 9c3c 6446 7cbb 11ae e5bc 72e0 13bd
00000130: 6ae8 87bd f874 d1bc cb57 27bd 031d d9bc
00000140: d827 9abc 7456 aabc fcd8 c9bc 342f f5bc
00000150: bdd1 babc eebc f7bc 4b2f d8bc aa21 5ebc
00000160: cfd2 acbc 400f df3c 0a75 07bd 020a 89bc
00000170: f78b 023d c4ff 31bd 6aaa c5bc ad5e da3c
00000180: 3ffe bbbc f9c1 9bbc d87a b63c 5e11 9bbc
00000190: fc61 7b3f 591e 773f 2a43 7d3f 23c1 833f
000001a0: 3cc4 833f 0e62 753f 4184 823f 9387 793f
000001b0: 339d 7b3f 0d4c 7c3f b08d 793f e8e7 793f
000001c0: ed97 7c3f 04a6 7c3f fd2e 843f ce80 7b3f
000001d0: 2d26 7a3f 96e6 7a3f 00f9 773f ab2f 7b3f
000001e0: 5c8d 793f ff84 753f 06d4 7a3f e41e 7b3f
000001f0: 3b47 833f b819 7d3f 9c00 7a3f c366 7b3f
00000200: 5aa0 7a3f 58d3 793f 57ed 793f 87ce 7a3f
00000210: 36ae 773f 056d 823f 2965 7c3f c395 833f
00000220: 7bb0 843f a100 7b3f dd1a 783f 044e 803f
00000230: cc66 7f3f b01e 7b3f 96d2 793f c7c7 823f
00000240: 1b0e 7c3f fe25 7b3f 0ec1 793f 3576 833f
00000250: 37dd 823f f3b1 7a3f 6ecf 7a3f 94c6 7e3f
00000260: 214a 7b3f 5488 793f d0ef 7c3f e570 7f3f
00000270: 3fb0 7c3f 0687 793f c598 7d3f 1464 7b3f
00000280: 6a19 803f 9774 7d3f 6348 7a3f e2bc 7b3f
00000290: e28a 843f 430c 7d3f f76d 773f 17bb 7c3f
000002a0: 8bb2 7b3f 1049 833f a4bb 803f b0d3 7a3f
000002b0: a5e9 813f aabf 7d3f 50f0 793f c389 773f
000002c0: fc38 763f a2de 7a3f caeb 783f 2250 7a3f
000002d0: f8d1 7b3f f71b 7b3f 1326 7a3f 4175 793f
000002e0: d4b5 7a3f 089d 793f 9a16 7a3f c401 7d3f
000002f0: 3da4 7b3f 3e43 833f 1c94 793f e70a 7c3f
00000300: ed71 833f 502c 773f 81f8 7a3f 066f 833f
00000310: bacd 7a3f b3d9 7b3f 76d1 823f 5edb 7b3f
00000320: f6da bb3b 9404 d1ba 51a9 0ebc a641 a2bc
00000330: bb9e be3c 15d4 31bb f035 f43c d427 983c
00000340: b345 bbbb 1111 2ebc 8dee 6d3b bf5a e13b
00000350: e9b4 983a 0b36 a73b 78f0 9b3c 3a65 943b
00000360: 3111 f9bb 142e 1a3c c1fb 71bb 55a4 9fbb
00000370: e752 6d3a 778b b23b 6989 11bc 4ee5 4a3a
00000380: 515e 0d3d 8714 4abb a8a1 16bb 7a26 dfbb
00000390: b1a0 2abc e641 063c 7f2d 513a 8621 a23c
000003a0: 44e5 203c d970 453c 1c92 b5ba e92e 743c
000003b0: 0b26 c2bc d037 373b b65e f3bb 2eb8 91bc
000003c0: 2a6e 50bc 9c00 b2ba c1d0 82bb 203c 82bc
000003d0: 104c 3f3b 449b 42bc 65b3 fcba 875d 0c3d
000003e0: 213f f0bc 0ce5 463a 89ff 74bc 743b c63c
000003f0: 9f3a 50b9 842d 10bc ec0c 4b39 e1c7 61bc

dense_8/bias f4 [3]
-0.057010245 -0.026853355 0.049011607
00000000: 9383 69bd 91fb dbbc 65c0 483d

dense_7/bias f4 [100]
0.048505202 0.0 0.016024113 0.0 0.023105817 0.0 0.0 -0.0016009357
0.0 -0.013741652 0.0 -0.010636823 -0.00656337 0.0 0.0 -0.026538685
0.0 -0.010911565 -0.009401341 0.040911674 0.03301715 -0.012454887 0.0 0.044699684
0.0 -0.011531924 -0.0111830635 0.0 -0.007884756 0.023032734 0.045671556 0.0
-0.026853006 -0.022692746 0.0063226894 0.023887927 -0.03285484 -0.013264733 0.041289356 0.046589524
-0.009991452 0.0 0.0 0.0 0.05051803 0.041956022 0.0 -0.029471112
0.03840036 -0.014443242 -0.0076581384 0.0 0.010244427 -0.010983156 -0.007416614 0.04979862
0.0 -0.012169778 0.015062277 -0.027423345 -0.01623544 -0.0115488125 -0.012563302 0.0006820005
0.047869775 -0.008245781 0.028987836 -0.00427686 -0.0018516916 -0.011707606 -0.025578193 0.0
0.025478704 -0.0010446816 0.05436425 0.051928658 0.04300179 -0.013344831 0.0 0.0
-0.025284026 0.0 -0.022716708 0.017387731 0.0 0.018131528 -0.044148296 0.052723084
0.0 0.0 -0.016054284 0.03799504 -0.03492989 -0.0076201665 0.04547723 -0.03186428
-0.06823145 -0.021492416 0.052566454 0.02379513
00000000: 64ad 463d 0000 0000 0045 833c 0000 0000
00000010: 6948 bd3c 0000 0000 0000 0000 7dd6 d1ba
00000020: 0000 0000 aa24 61bc 0000 0000 1246 2ebc
00000030: 8a11 d7bb 0000 0000 0000 0000 a867 d9bc
00000040: 0000 0000 6cc6 32bc 1508 1abc 0093 273d
00000050: fe3c 073d 950f 4cbc 0000 0000 0417 373d
00000060: 0000 0000 65f0 3cbc 2b39 37bc 0000 0000
00000070: 102f 01bc 25af bc3c 1912 3b3d 0000 0000
00000080: d6fa dbbc 23e6 b9bc 902e cf3b 9db0 c33c
00000090: cc92 06bd 5354 59bc 071f 293d a8d4 3e3d
000000a0: 30b3 23bc 0000 0000 0000 0000 0000 0000
000000b0: feeb 4e3d 14da 2b3d 0000 0000 676d f1bc
000000c0: b249 1d3d 59a3 6cbc 1ff1 fabb 0000 0000
000000d0: 3ed8 273c b2f2 33bc 1107 f3bb a3f9 4b3d
000000e0: 0000 0000 c063 47bc c5c7 763c eca6 e0bc
000000f0: 2f00 85bc 3b37 3dbc 4fd6 4dbc 47c8 323a
00000100: 1913 443d 5019 07bc e677 ed3c e724 8cbb
00000110: 76b4 f2ba 42d1 3fbc 5c89 d1bc 0000 0000
00000120: b7b8 d03c b3ed 88ba 0cad 5e3d 25b3 543d
00000130: a522 303d 47a4 5abc 0000 0000 0000 0000
00000140: 7220 cfbc 0000 0000 6418 babc b770 8e3c
00000150: 0000 0000 9288 943c d8d4 34bd 29f4 573d
00000160: 0000 0000 0000 0000 4684 83bc b0a0 1b3d
00000170: a512 0fbd 97b2 f9bb 5546 3a3d 1f84 02bd
00000180: eebc 8bbd dd10 b0bc ec4f 573d 01ee c23c

dense_6/bias f4 [100]
-0.0116547225 -0.018165085 -0.009118249 -0.004946945 0.0 0.0 0.031656798 -0.0077187624
-0.006556916 0.034373026 0.015438712 0.0076955645 0.0 0.0 0.0 -0.010384986
0.0009922743 0.0 -0.010503843 -0.01267188 -0.018166406 -0.018592967 -0.0060051484 -0.025968457
-0.015879506 0.0013881549 -0.0060050613 -0.016220002 -0.016621701 0.0 -0.0114900395 -0.011145937
-0.008940559 0.021244716 -0.008218053 0.0096327085 0.028458407 0.0 0.0 0.016558187
0.0026726145 -0.006005321 0.0 0.003324021 -0.003020925 0.0 -0.008424065 0.004835334
0.0 0.0 0.0 -0.008730066 -0.0052285707 0.0 -0.017684456 -0.008038819
-0.006004184 0.0019153088 0.019814175 -0.0034863479 -0.009804382 0.0 -0.0060054096 -0.016222637
0.0 -0.0074262065 -0.0074396115 -0.012072918 0.0 0.0 -0.012333267 0.0
0.0 -0.0060052862 -0.0072004627 0.0046411445 -0.0083748605 -0.010164774 -0.01240174 -0.013422435
0.0 -0.004355689 0.0 -0.008229995 0.009734072 0.029133355 0.0 -0.013595622
-0.0052676448 -0.006005362 0.0 0.0 0.0014465591 0.0 0.02009747 0.0
-0.020412378 0.02044259 0.00600498 -0.011447744
00000000: 73f3 3ebc f2ce 94bc b564 15bc fb19 a2bb
00000010: 0000 0000 0000 0000 8faa 013d aced fcbb
00000020: 66db d6bb bbca 0c3d a7f2 7c3c 132b fc3b
00000030: 0000 0000 0000 0000 0000 0000 ca25 2abc
00000040: 330f 823a 0000 0000 5018 2cbc b89d 4fbc
00000050: b7d1 94bc 4750 98bc d6c6 c4bb cdbb d4bc
00000060: bd15 82bc c0f2 b53a 1bc6 c4bb cfdf 84bc
00000070: 3c2a 88bc 0000 0000 b840 3cbc 739d 36bc
00000080: 6c7b 12bc 6609 ae3c 03a5 06bc 82d2 1d3c
00000090: 9b21 e93c 0000 0000 0000 0000 09a5 873c
000000a0: 0827 2f3b 49c8 c4bb 0000 0000 d1d7 593b
000000b0: b6fa 45bb 0000 0000 1705 0abc b971 9e3b
000000c0: 0000 0000 0000 0000 0000 0000 8d08 0fbc
000000d0: 6e54 abbb 0000 0000 fede 90bc 40b5 03bc
000000e0: bfbe c4bb 190b fb3a 5651 a23c 367b 64bb
000000f0: 8fa2 20bc 0000 0000 07c9 c4bb 56e5 84bc
00000100: 0000 0000 8957 f3bb fcc7 f3bb 7dcd 45bc
00000110: 0000 0000 0000 0000 7911 4abc 0000 0000
00000120: 0000 0000 fec7 c4bb dcf1 ebbb be14 983b
00000130: b636 09bc 278a 26bc ab30 4bbc c6e9 5bbc
00000140: 0000 0000 2bba 8ebb 0000 0000 1ad7 06bc
00000150: a87b 1f3c 13a9 ee3c 0000 0000 2cc0 5ebc
00000160: 359c acbb a1c8 c4bb 0000 0000 0000 0000
00000170: 789a bd3a 0000 0000 73a3 a43c 0000 0000
00000180: dc37 a7bc 3877 a73c 6cc5 c43b 528f 3bbc

std.constant5 f4 [100, 100]
-0.10368215 0.023500945 -0.10393822 -0.12481117 0.14400336 -0.02122331 0.12892526 0.097805336
0.12995838 -0.13126013 0.13067533 0.12474475 0.026556524 -0.124910645 0.05120572 0.15984538
-0.09631708 -0.15719478 0.0926005 0.11015353 0.016219495 0.13824274 -0.025977025 0.01586007
-0.14046088 0.026830422 0.12085944 -0.04084595 0.10420075 0.013645439 0.12528658 0.17272218
-0.034343872 -0.07650229 -0.06680379 0.1620176 0.16292986 0.11540537 -0.1525498 0.15551057
0.13114944 -0.07166547 0.027388033 0.052262288 0.114607826 0.032417167 -0.09057386 0.13683127
0.069355704 0.041392285 0.1309165 -0.022081248 -0.16514798 0.121603176 -0.09880404 0.15729558
0.106003635 0.05480919 -0.06919893 -0.027521245 0.10890893 -0.03059045 0.074261524 -0.14962849
0.06324243 0.08887461 0.1473749 -0.0476363 -0.14254251 0.15330863 0.097188376 -0.124114536
-0.009757051 0.1839434 -0.15640473 0.040796593 0.08538024 -0.023979489 0.00083289255 -0.03845711
0.074809596 -0.04760431 0.08722009 0.1145386 -0.018719463 0.060295302 -0.07361808 0.042026587
-0.039485864 -0.0331752 -0.061349478 0.035393875 0.006265042 0.10524329 -0.013909049 -0.12971406
-0.006282151 0.044208273 0.012126341 -0.18028112 0.09293033 -0.1619686 -0.0991664 -0.02405435
0.03943225 -0.032917757 -0.19197574 0.029862655 0.1453775 -0.013443943 0.053031538 -0.14285597
0.11746373 -0.15713805 0.107137375 0.012543941 0.108069316 0.044332817 -0.010075678 0.16625391
-0.08483957 0.10769293 -0.03376741 -0.020072458 0.04231945 -0.14581098 -0.10157414 -0.086294904
-0.15716305 -0.07954751 0.060181558 0.16138422 -0.06695279 0.093941264 -0.16164446 -0.12584934
-0.073056296 -0.084450915 0.17717236 -0.14170946 0.07364769 -0.02867735 0.015849464 -0.058704767
-0.13687508 -0.04380935 0.10335408 -0.1687658 0.1360071 0.048274323 0.14330825 0.03815067
-0.053361915 0.13463368 0.09305337 -0.024898916 -0.057951223 -0.13342248 -0.068313 -0.10537884
-0.02104579 -0.03749507 -0.1709806 0.018749474 0.009518669 -0.00967889 -0.06903602 0.055245917
-0.035253704 0.084648326 0.05628297 0.08011887 -0.011606457 0.0009850621 -0.07790712 -0.025676502
-0.0029765095 0.03364168 0.039804235 -0.039012622 0.123496175 0.16754375 -0.021307034 -0.06380601
-0.07335771 0.025121015 -0.13162687 0.07506408 -0.09107868 -0.18338396 0.13049224 -0.064078934
-0.010524978 0.11251445 0.17943096 0.07552921 -0.097294606 0.02058668 0.07276234 0.12589644
-0.14177154 0.053929154 -0.08771905 0.03619343 0.16499957 0.1662097 -0.053867944 0.13940436
-0.15221044 -0.030878153 -0.13689405 0.06777353 0.042036027 -0.08959417 -0.16388153 0.05558777
0.1263271 -0.076153524 -0.1191767 0.121372 -0.13563268 0.013223499 0.046827186 0.010986894
-0.11041579 0.17724583 0.0067073144 0.12819724 -0.14014634 0.085761316 -0.06421964 -0.15170336
0.09381025 0.023066202 0.10810378 -0.13597558 0.027085438 -0.123605706 -0.027006056 -0.117314726
0.17748706 0.0779948 0.06442962 0.15423498 0.06823654 -0.162394 0.053338215 -0.051424544
-0.09871803 -0.16342689 0.10701063 -0.03263609 0.16213146 0.07037604 0.09544694 -0.073502935
00000000: 4f57 d4bd 0e85 c03c 90dd d4bd 009d ffbd
00000010: 9e75 133e 82dc adbc fc04 043e 2a4e c83d
00000020: cf13 053e 0e69 06be c1cf 053e 2d7a ff3d
00000030: 118d d93c 27d1 ffbd 17bd 513d 82ae 233e
00000040: e441 c5bd abf7 20be 55a5 bd3d 2d98 e13d
00000050: bfde 843c 818f 0d3e c5cd d4bc faec 813c
00000060: fad4 0fbe 79cb db3c 2785 f73d 154e 27bd
00000070: 3467 d53d 1f91 5f3c 204b 003e 15de 303e
00000080: 29ac 0cbd 3cad 9cbd 6dd0 88bd f1e7 253e
00000090: 16d7 263e a759 ec3d 0436 1cbe 2a3e 1f3e
000000a0: 0a4c 063e 59c5 92bd de5c e03c fb10 563d
000000b0: 82b7 ea3d ddc7 043d ca7e b9bd 7f1d 0c3e
000000c0: 5d0a 8e3d f58a 293d fa0e 063e bce3 b4bc
000000d0: 8d1c 29be 160b f93d c659 cabd 1812 213e
000000e0: 6f18 d93d 9a7f 603d 2bb8 8dbd 3c74 e1bc
000000f0: a50b df3d d398 fabc 6d16 983d 3638 19be
00000100: 3f85 813d e403 b63d 72e9 163e 481e 43bd
00000110: aaf6 11be f0fc 1c3e b30a c73d c32f febd
00000120: 0adc 1fbc a95b 3c3e 9028 20be 541a 273d
00000130: d6db ae3d a270 c4bc 7956 5a3a 3485 1dbd
00000140: c635 993d bdfc 42bd 72a0 b23d 3793 ea3d
00000150: 8f59 99bc 35f8 763d 13c5 96bd 1224 2c3d
00000160: eebb 21bd b8e2 07bd 9749 7bbd 2bf9 103d
00000170: fb4a cd3b cb89 d73d c8e2 63bc c3d3 04be
00000180: 81da cdbb bc13 353d 90ad 463c 9d9b 38be
00000190: 4252 be3d 19db 25be c117 cbbd a10d c5bc
000001a0: b683 213d c5d4 06bd 4a95 44be 87a2 f43c
000001b0: d7dd 143e fc43 5cbc 9937 593d d648 12be
000001c0: d390 f03d cce8 20be d76a db3d 1a85 4d3c
000001d0: 7253 dd3d 5496 353d 7514 25bc 773e 2a3e
000001e0: 5ec0 adbd 1c8e dc3d b24f 0abd ff6e a4bc
000001f0: 2957 2d3d 794f 15be 1a06 d0bd 62bb b0bd
00000200: 5aef 20be cee9 a2bd f080 763d e841 253e
00000210: 8b1e 89bd 4764 c03d 2086 25be a6de 00be
00000220: 8a9e 95bd 9af4 acbd ac6c 353e 491c 11be
00000230: 9ad4 963d c3ec eabc bcd6 813c 6974 70bd
00000240: fb28 0cbe 6f71 33bd 4eab d33d f1d0 2cbe
00000250: 7245 0b3e 4cbb 453d 66bf 123e e043 1c3d
00000260: 0692 5abd 69dd 093e c492 be3d d0f8 cbbc
00000270: 435e 6dbd e79f 08be b0e7 8bbd dcd0 d7bd
00000280: 3868 acbc 6e94 19bd 8a15 2fbe 7f98 993c
00000290: 31f4 1b3c 3594 1ebc c262 8dbd 8b49 623d
000002a0: 3066 10bd 1a5c ad3d f988 663d 5d15 a43d
000002b0: 0229 3ebc 331d 813a c58d 9fbd 8757 d2bc
000002c0: 8b11 43bb dccb 093d c409 233d b3cb 1fbd
000002d0: 90eb fc3d 9790 2b3e 178c aebc baac 82bd
000002e0: 913c 96bd 96ca cd3c 32c9 06be 32bb 993d
000002f0: 7587 babd 01c9 3bbe c29f 053e d13b 83bd
00000300: f570 2cbc fa6d e63d c0bc 373e 0faf 9a3d
00000310: 6542 c7bd 66a5 a83c 6c04 953d ffea 003e
00000320: 8f2c 11be d1e4 5c3d 0ca6 b3bd 903f 143d
00000330: a6f5 283e e032 2a3e a2a4 5cbd 04c0 0e3e
00000340: 0edd 1bbe 2ef4 fcbc f42d 0cbe d9cc 8a3d
00000350: f82d 2c3d 267d b7bd 8fd0 27be 00b0 633d
00000360: e45b 013e 61f6 9bbd ea12 f4bd e291 f83d
00000370: 4be3 0abe 60a7 583c ddcd 3f3d 6002 343c
00000380: ac21 e2bd ee7f 353e 08c9 db3b 2346 033e
00000390: 8682 0fbe a1a3 af3d 9685 83bd 2058 1bbe
000003a0: 971f c03d 55f5 bc3c 8465 dd3d 2f3d 0bbe
000003b0: 48e2 dd3c fd24 fdbd ce3b ddbc b442 f0bd
000003c0: 2bbf 353e bdbb 9f3d adf3 833d c6ef 1d3e
000003d0: 99bf 8b3d 9d4a 26be 2c79 5a3d 8ba2 52bd
000003e0: ae2c cabd 6159 27be 6428 db3d 6cad 05bd
000003f0: ca05 263e 5021 903d af79 c33d b588 96bd

std.constant6 f4 [100, 100]
0.15018897 -0.08717857 0.08341683 -0.015999107 0.1096634 0.024708226 0.10656848 0.14543478
0.121757336 0.13703582 0.053902473 -0.12263802 0.15200073 0.12122223 -0.09570163 0.060420983
0.041764762 -0.16754873 0.05609142 0.065016285 -0.09353262 0.08045789 0.13252993 -0.030405648
-0.0012575338 0.039565574 -0.006990861 -0.07536482 -0.07492858 0.07424112 0.005158698 -0.08520374
0.06648474 -0.02736718 0.12481403 0.0781796 0.112560466 -0.10665455 -0.16989753 0.09739292
0.040239252 0.1666621 -0.03787461 0.11420162 0.10673094 0.027662948 0.13138764 0.02432025
-0.0111246705 -0.017996788 -0.07094134 0.13169987 0.0068741064 0.006770864 -0.14734343 -0.11913443
0.07596719 -0.09249145 -0.091814145 0.100515366 0.16486399 0.029292285 -0.12093766 -0.0049427766
0.02348134 -0.007560447 0.005669848 0.0025703982 -0.0809305 0.049834266 -0.16074717 0.017860264
0.024910659 0.0680135 0.030983021 -0.10902584 -0.09641889 0.1401549 0.08692392 0.020403165
0.03772612 0.032090995 0.17014596 -0.110093184 0.12941174 0.027385013 -0.17210893 -0.11986245
0.057352528 -0.095903926 0.06510994 -0.029602662 0.022320902 -0.13935101 0.10071411 0.070935145
0.028838472 0.062105965 0.0124386195 0.06776736 -0.11568628 0.067932725 0.16932935 -0.018666133
0.12785974 -0.15111858 -0.02964504 0.03506252 -0.040909275 0.02518779 -0.03161639 -0.04124224
0.10884255 0.16104802 0.11240032 -0.1442514 0.019325837 -0.037321255 0.042275622 -0.1255152
0.052854076 -0.15062447 -0.16970964 0.12338212 -0.010116324 -0.09281261 -0.043854833 -0.14727439
-0.13693145 -0.09057824 -0.15906358 -0.08249114 0.031409383 -0.032371923 -0.16546279 -0.16515906
0.043869287 -0.066628166 0.14089921 -0.0042194724 0.06698747 -0.10519707 -0.16704935 -0.16067815
0.012335286 -0.09438745 -0.12603973 0.14256915 0.022387713 0.05746758 -0.066959396 -0.09228948
0.13681665 0.15366533 -0.13222885 0.0052571893 0.14340484 -0.14902565 -0.07108128 -0.13184167
0.049241394 0.017245412 0.022205979 -0.032868132 0.12841555 0.16608965 0.08434227 -0.14560346
0.116600364 0.10978198 -0.10864201 0.06952478 0.052656844 -0.13372618 -0.090535216 -0.13606259
0.097333014 0.029645905 -0.14410117 -0.16089635 0.15560007 0.042649046 0.08885434 0.14524758
-0.115556456 0.03119956 -0.06965172 0.124852985 -0.074660145 0.15045461 0.08167654 -0.086679764
0.07843909 0.07108517 -0.17226504 -0.16794385 0.16685078 0.124237806 0.13153327 -0.15847781
0.1402494 0.055534102 -0.0759656 -0.08943717 -0.14626448 -0.15649518 0.1534749 0.051717922
-0.06982934 -0.11206437 -0.107855745 0.057637464 0.16513887 0.16060284 -0.07606381 -0.13219742
0.01705876 0.04378414 0.11431596 0.042433992 0.13805509 -0.114609 0.08540931 -0.101056404
-0.057512723 -0.14139071 0.10244706 -0.11442771 -0.18298617 0.0023170859 0.08205059 0.0897198
-0.10019303 0.12941548 0.1573431 0.025434379 -0.1611559 -0.13073455 -0.03539458 -0.05461215
-0.044913072 0.14854243 -0.06325615 -0.03540786 0.03310905 0.07691321 -0.10076336 0.105152115
-0.030327901 -0.054712653 -0.02308701 0.120230585 -0.110339455 -0.11273359 0.07905946 -0.08189689
00000000: 23cb 193e ae8a b2bd 71d6 aa3d 8f10 83bc
00000010: 3497 e03d e868 ca3c 9340 da3d dbec 143e
00000020: e95b f93d 1e53 0c3e d7c8 5c3d a429 fbbd
00000030: 14a6 1b3e 5c43 f83d 37ff c3bd fe7b 773d
00000040: 8711 2b3d e591 2bbe 1ec0 653d 4227 853d
00000050: 088e bfbd 1bc7 a43d edb5 073e 4415 f9bc
00000060: d5d3 a4ba 830f 223d 9813 e5bb df58 9abd
00000070: 2874 99bd ba0b 983d 4c0a a93b 4c7f aebd
00000080: 2729 883d 2331 e0bc 809e ff3d a01c a03d
00000090: 1a86 e63d b36d dabd 9ef9 2dbe f075 c73d
000000a0: ead1 243d 78a9 2a3e 6822 1bbd 8ae2 e93d
000000b0: c095 da3d 689d e23c 7b8a 063e 433b c73c
000000c0: 4044 36bc 006e 93bc b149 91bd 55dc 063e
000000d0: 2f40 e13b 20de dd3b 32e1 16be c1fc f3bd
000000e0: b094 9b3d 286c bdbd 0e09 bcbd 00db cd3d
000000f0: 1bd2 283e 60f6 ef3c 2aae f7bd 04f7 a1bb
00000100: f05b c03c a0bd f7bb 22ca b93b 2074 283b
00000110: e4be a5bd 041f 4c3d e89a 24be b04f 923c
00000120: 7011 cc3c a94a 8b3d 1bd0 fd3c f148 dfbd
00000130: 4477 c5bd c484 0f3e 2b05 b23d 8a24 a73c
00000140: b486 1a3d d971 033d be3a 2e3e 8978 e1bd
00000150: 8384 043e 8956 e03c 533d 30be 727a f5bd
00000160: 7cea 6a3d 4769 c4bd 5c58 853d 4881 f2bc
00000170: 53da b63c 08b2 0ebe 3343 ce3d 7246 913d
00000180: a93e ec3c d362 7e3d 5acb 4b3c 9dc9 8a3d
00000190: eeec ecbd 5020 8b3d ac64 2d3e b8e9 98bc
000001a0: aaed 023e d4be 1abe 28da f2bc b89d 0f3d
000001b0: 7c90 27bd a056 ce3c 3080 01bd a0ed 28bd
000001c0: d8e8 de3d c6e9 243e 2432 e63d a4b6 13be
000001d0: 3851 9e3c 2cde 18bd 3429 2d3d 0e87 00be
000001e0: 847d 583d 4d3d 1abe 5dc8 2dbe c4af fc3d
000001f0: f0be 25bc 8a14 bebd 20a1 33bd 19cf 16be
00000200: c237 0cbe 1681 b9bd 90e1 22be 1df1 a8bd
00000210: 20a7 003d 6c98 04bd 146f 29be 751f 29be
00000220: 48b0 333d 5974 88bd e247 103e 8043 8abb
00000230: ba30 893d 9071 d7bd fc0e 2bbe d088 24be
00000240: f019 4a3c 354e c1bd 8f10 01be a6fd 113e
00000250: 7066 b73c 2063 6b3d 0222 89bd 4402 bdbd
00000260: aa19 0c3e 725a 1d3e 0067 07be 8044 ac3b
00000270: b8d8 123e 2e9a 18be 1093 91bd 8101 07be
00000280: 58b1 493d 4046 8d3c 50e9 b53c bca0 06bd
00000290: 5e7f 033e 6813 2a3e a4bb ac3d 1319 15be
000002a0: 2ccc ee3d 60d5 e03d b47f debd 0263 8e3d
000002b0: b4ae 573d 84ef 08be 876a b9bd fe53 0bbe
000002c0: 8856 c73d f8db f23c 428f 13be 03c2 24be
000002d0: a055 1f3e c4b0 2e3d 44f9 b53d c8bb 143e
000002e0: dda8 ecbd 3896 ff3c 90a5 8ebd ecb2 ff3d
000002f0: 6be7 98bd c610 1a3e 0846 a73d 2985 b1bd
00000300: aca4 a03d 1a95 913d 3f66 30be 79f9 2bbe
00000310: eeda 2a3e 6470 fe3d a8b0 063e 0248 22be
00000320: 8a9d 0f3e ba77 633d da93 9bbd d62a b7bd
00000330: 5bc6 15be 4640 20be 8628 1d3e 2cd6 533d
00000340: af02 8fbd 0182 e5bd 79e3 dcbd 4315 6c3d
00000350: 2a1a 293e 1275 243e 58c7 9bbd c35e 07be
00000360: d0be 8b3c 0057 333d 7c1e ea3d 44cf 2d3d
00000370: 505e 0d3e 20b8 eabd 14eb ae3d a9f6 cebd
00000380: 7692 6bbd bac8 10be c4cf d13d 1359 eabd
00000390: ba60 3bbe 40da 173b 240a a83d 04bf b73d
000003a0: 0132 cdbd 7e85 043e 8d1e 213e c25b d03c
000003b0: 0d06 25be 47df 05be e8f9 10bd fdb0 5fbd
000003c0: c5f6 37bd 821b 183e 718c 81bd d507 11bd
000003d0: 5b9d 073d ac84 9d3d 055d cebd fe59 d73d
000003e0: 3872 f8bc 601a 60bd f820 bdbc 743b f63d
000003f0: a7f9 e1bd dee0 e6bd ede9 a13d 8fb9 a7bd

std.constant7 f4 [3, 100]
-0.15180056 -0.02059336 -0.06290533 -0.04552655 -0.19970115 -0.07348083 -0.10779156 0.017929666
0.06608537 0.091568105 0.21034911 0.048646495 -0.16924565 0.041268945 0.040967196 -0.21168277
0.030764997 -0.23542915 0.1274537 -0.24364066 -0.017659033 0.19581158 -0.13239375 0.027455295
0.08212745 0.11401608 -0.1156164 0.06115696 0.03725241 0.14935638 0.018200353 0.029772311
-0.06883765 0.047244515 0.12588528 0.10094756 -0.20502207 0.17776549 -0.08077848 -0.016215034
0.21923982 -0.07997669 0.081043094 0.09511936 -0.18695438 -0.24958129 0.10997683 0.08944998
-0.10350955 0.020410376 0.13560125 0.13174793 0.136749 0.22472805 0.15093434 -0.070237495
0.11081132 -0.18783817 0.019368092 0.1344274 -0.10462304 0.042177014 0.09295288 0.026927987
-0.22229925 -0.120987445 -0.07116472 -0.00042169014 -0.18293256 -0.07463226 -0.25018087 -0.052919
0.14141957 0.0015517356 -0.21955094 -0.23492904 -0.23789342 -0.13228363 0.13704309 0.088260114
0.13957089 -0.03789425 -0.24877505 -0.13656351 0.028719664 -0.14682749 0.05061042 -0.21342562
0.14030471 -0.18317051 -0.17486578 -0.24177565 0.16280511 0.20339556 -0.15722786 -0.033103295
-0.06353085 0.16560748 -0.1943425 0.0455367 -0.02491723 0.22966385 -0.050070483 -0.16564837
0.21200699 -0.023113713 -0.16693085 -0.06485398 0.21815449 -0.19015877 0.19482574 -0.11008526
-0.0031250285 -0.051684454 0.15059835 -0.055106327 0.16797474 0.18210013 0.19477856 -0.11703272
0.18352331 0.1723068 0.14887094 0.09967786 -0.11569384 -0.14243162 0.11512214 0.2110402
0.13007589 -0.13133235 0.15919249 -0.03367722 -0.061212283 -0.13167255 -0.18043625 0.16238727
-0.09385355 -0.14974463 -0.03670665 0.22200419 -0.048037354 -0.23372667 0.044637322 -0.2314824
0.20883222 -0.21220732 -0.10232617 -0.05920041 0.039277516 0.20691843 0.13330576 0.1974639
0.1845812 0.17114651 0.073456556 0.1371227 0.1797328 0.07367636 -0.15892752 0.14140192
-0.12769993 0.22770526 -0.0707632 -0.087260924 -0.12102149 0.12860915 0.120099925 -0.13554694
-0.16530219 0.14904922 -0.057546746 0.20546389 -0.15701288 0.19896226 0.13164885 -0.015392981
-0.13265637 -0.22922654 0.059601992 0.078246474 -0.17146699 -0.24081367 -0.08129468 -0.13918859
-0.054797858 0.17754821 0.17696689 0.100440785 0.11842376 0.18173578 0.09187701 0.17043862
0.13648473 0.1434106 -0.024225326 0.17560032 -0.16261216 0.10553299 0.06549321 0.01684206
0.21826598 -0.010916591 -0.009401504 -0.2073165 0.1239294 0.07520524 -0.16494828 0.00774193
0.06531891 -0.22706923 -0.0249978 0.004513471 0.1808693 -0.086256206 0.022785038 -0.16736966
0.10180345 -0.14769909 -0.053350754 -0.04589627 0.20102054 0.1239041 -0.10478893 0.1381028
-0.1636191 -0.046369866 0.021514978 0.060002863 -0.08219743 0.18107137 0.20259614 -0.094185084
0.005504432 -0.18157531 0.106869295 0.17902173 -0.16841766 0.02875416 0.097908616 0.24004214
-0.23278221 0.062947005 -0.23080385 -0.20070578 0.22552477 -0.062077153 0.0321106 -0.21777736
0.0581519 -0.17922017 0.09804996 0.20208693 0.2065518 0.019672891 0.042166524 0.24645564
00000000: 9b71 1bbe 68b3 a8bc 82d4 80bd 0c7a 3abd
00000010: 757e 4cbe 1e7d 96bd d2c1 dcbd 3ce1 923c
00000020: c457 873d 0f88 bb3d c265 573e 8c41 473d
00000030: bb4e 2dbe a009 293d 38cd 273d 5ec3 58be
00000040: e006 fc3c 5714 71be 3983 023e f07c 79be
00000050: ada9 90bc d582 483e 3a92 07be ede9 e03c
00000060: 7032 a83d 4381 e93d 4bc8 ecbd b87f 7a3d
00000070: fc95 183d e1f0 183e e818 953c 10e5 f33c
00000080: c1fa 8cbd 7783 413d 12e8 003e 98bd ce3d
00000090: 4ef1 51be 2808 363e 306f a5bd 64d5 84bc
000000a0: 6780 603e d2ca a3bd ecf9 a53d f0cd c23d
000000b0: f870 3fbe 3d92 7fbe 883b e13d 8d31 b73d
000000c0: d1fc d3bd a933 a73c 0edb 0a3e eee8 063e
000000d0: ee07 0c3e 1c1f 663e 888e 1a3e add8 8fbd
000000e0: 0cf1 e23d a658 40be d5a9 9e3c 56a7 093e
000000f0: 9b44 d6bd cec1 2c3d 145e be3d 1598 dc3c
00000100: 6aa2 63be 44c8 f7bd cfbe 91bd 4b16 ddb9
00000110: ac52 3bbe ccd8 98bd b517 80be 98c1 58bd
00000120: 4bd0 103e 9b63 cb3a f6d1 60be 3d91 70be
00000130: 559a 73be 5c75 07be 0655 0c3e b8c1 b43d
00000140: aceb 0e3e 0037 1bbd e3be 7ebe 4ed7 0bbe
00000150: 8045 eb3c f259 16be df4c 4f3d 3f8c 5abe
00000160: 0aac 0f3e 0d91 3bbe 0410 33be 0994 77be
00000170: 62b6 263e ed46 503e 5700 21be 5297 07bd
00000180: 761c 82bd 0295 293e b801 47be b184 3a3d
00000190: 381f ccbc 002d 6b3e b516 4dbd ba9f 29be
000001a0: 5c18 593e f858 bdbc ecef 2abe 2ad2 84bd
000001b0: e463 5f3e fbb8 42be 6680 473e 6174 e1bd
000001c0: 47cd 4cbb 14b3 53bd 7436 1a3e 2cb7 61bd
000001d0: 9201 2c3e 7578 3a3e 0874 473e daae efbd
000001e0: 89ed 3b3e 3271 303e a071 183e e823 cc3d
000001f0: e4f0 ecbd 98d9 11be 28c5 eb3d ec1a 583e
00000200: 9d32 053e fd7b 06be 5b03 233e 20f1 09bd
00000210: bbb9 7abd 2bd5 06be 48c4 38be d948 263e
00000220: 4a36 c0bd a856 19be b659 16bd 1155 633e
00000230: d1c2 44bd 0b56 6fbe a0d5 363d b909 6dbe
00000240: 1dd8 553e e04c 59be 6290 d1bd 217c 72bd
00000250: 76e1 203d 6de2 533e 4e81 083e fa33 4a3e
00000260: db02 3d3e 0841 2f3e 6470 963d e569 0c3e
00000270: e00b 383e a2e3 963d e5bd 22be aacb 103e
00000280: c5c3 02be 912b 693e 4cec 90bd dbb5 b2bd
00000290: 1dda f7bd 1eb2 033e f3f6 f53d d1cc 0abe
000002a0: fa44 29be 5ca0 183e 23b6 6bbd 2065 523e
000002b0: fcc7 20be c3bc 4b3e f5ce 063e d732 7cbc
000002c0: 12d7 07be 5dba 6abe 3821 743d b03f a03d
000002d0: 0b95 2fbe dc97 76be d37d a6bd 7487 0ebe
000002e0: b873 60bd 33cf 353e cf36 353e e6b3 cd3d
000002f0: 2888 f23d f218 3a3e 042a bc3d 7687 2e3e
00000300: a7c2 0b3e 3ada 123e 3174 c6bc 92d0 333e
00000310: cd83 26be ae21 d83d 4e21 863d 5cf8 893c
00000320: 1e81 5f3e 80db 32bc c408 1abc c74a 54be
00000330: b3ce fd3d 3405 9a3d 34e8 28be 04b0 fd3b
00000340: ecc5 853d d684 68be 30c8 ccbc bde5 933b
00000350: cd35 393e 18a7 b0bd b0a7 ba3c f462 2bbe
00000360: 547e d03d 6e3e 17be 5286 5abd bafd 3bbd
00000370: 54d8 4d3e 6fc1 fd3d 949b d6bd d26a 0d3e
00000380: c48b 27be 54ee 3dbd 2e40 b03c 90c5 753d
00000390: 2057 a8bd c66a 393e 5d75 4f3e 1ce4 c0bd
000003a0: 865e b43b e1ee 39be 4ade da3d 7951 373e
000003b0: ae75 2cbe d88d eb3c 5084 c83d 9bcd 753e
000003c0: 765e 6ebe 5cea 803d d857 6cbe d185 4dbe
000003d0: f7ef 663e 9d44 7ebd 6886 033d 0701 5fbe
000003e0: b030 6e3d 7e85 37be 6bce c83d e0ef 4e3e
000003f0: 5182 533e 0b29 a13c ceb6 2c3d de5e 7c3e

lstm_2/lstm_cell_2/bias1 f4 [400]
-0.017722346 -0.04309151 -0.010088335 0.028272092 0.028742507 -0.047161683 0.025690595 -0.028409583
-0.016256196 -0.015954599 -0.029612813 -0.027420929 -0.015225792 -0.015334308 0.030881857 -0.02507836
-0.024395188 -0.020604145 -0.039097678 -0.019259028 -0.029794509 -0.048915572 -0.023349203 -0.019337773
0.029510153 -0.008960526 -0.02951939 -0.020005632 -0.025641484 -0.022758637 -0.03420388 -0.022079691
-0.036476217 0.019430226 -0.0144963525 0.027109018 0.033596724 -0.023224274 -0.032693427 0.007937228
0.0039435066 -0.021589307 -0.030976841 0.021774583 -0.017575938 -0.022828737 -0.032153353 0.031046577
0.028812353 -0.03093693 -0.022305878 0.00089177454 -0.020917915 -0.030507559 -0.011531674 0.002825848
-0.013903425 -0.02967233 -0.006673572 -0.019652674 0.009648591 -0.014731663 -0.021147072 -0.02032999
0.033534087 -0.0122612445 -0.033717275 -0.014684779 -0.017240426 0.025660763 0.014108087 -0.022947032
0.019060249 -0.0038494105 -0.028037103 -0.03610272 -0.06636126 -0.02556847 -0.04085521 -0.026503092
-0.018817827 -0.020793177 -0.024639599 -0.029929735 -0.02280509 -0.030241456 -0.026389739 -0.013557831
-0.021096615 0.027228951 -0.0330706 -0.016728405 0.031871762 -0.043456808 -0.024129111 0.026656473
-0.022948382 -0.019013392 0.022275373 -0.01892918 0.9819639 0.9653068 0.9893061 1.0293316
1.0294261 0.95852745 1.0196611 0.97472495 0.9828674 0.98553544 0.9748182 0.97619486
0.9866932 0.9869082 1.032684 0.98243415 0.977145 0.98008096 0.9686432 0.9811961
0.9748132 0.9590606 0.9797977 0.9809401 1.0256113 0.9886737 0.9765718 0.98203677
0.9790093 0.9758811 0.97627777 0.97971386 0.967502 1.018952 0.9859186 1.0280079
1.0366358 0.98047835 0.9691599 1.0023808 0.9976623 0.980937 0.97586954 1.0217217
0.98459023 0.98104846 0.97560203 1.0270449 1.022376 0.9792778 0.9797276 0.99521756
0.98159987 0.97473645 0.98803425 0.9978164 0.9870643 0.97471654 0.9906123 0.9819958
1.0007756 0.99006027 0.97766703 0.9833509 1.0354884 0.98846835 0.9665217 0.98722976
0.9831931 1.0256672 1.0057263 0.9797926 1.0149428 0.9912058 0.9763231 0.9669458
0.961807 0.9799596 0.97234786 0.9777852 0.9836726 0.98089546 0.97714347 0.9744454
0.979337 0.97505236 0.9769074 0.9883082 0.9829748 1.0254896 0.9749162 0.98454136
1.0269142 0.9655199 0.98035437 1.0268257 0.97970164 0.9837906 1.0220172 0.983816
0.0057328893 -0.0015946799 -0.00870736 -0.019806694 0.023269048 -0.0027134467 0.029810876 0.018573679
-0.005715096 -0.010624186 0.0036305517 0.006877273 0.0011650595 0.005102878 0.019035563 0.0045286687
-0.0076009263 0.0094104 -0.0036923739 -0.004871885 0.0009053186 0.0054487544 -0.008882859 0.00077398575
0.034513775 -0.003083499 -0.0022984538 -0.0068100067 -0.010414288 0.008194422 0.0007979497 0.019791376
0.009820286 0.012050831 -0.0013852748 0.014903762 -0.02369978 0.002795685 -0.007427062 -0.017788019
-0.012721578 -0.0013580504 -0.0039921706 -0.01589781 0.0029189624 -0.0118778385 -0.0019279538 0.034268882
-0.029326977 0.0007587231 -0.014953502 0.024198271 -0.00019858264 -0.008799914 0.00019364402 -0.013780565
00000000: 742e 91bc b980 30bd 8b49 25bc e09a e73c
00000010: 6875 eb3c 9c2c 41bd 1575 d23c 37bb e8bc
00000020: b72b 85bc 38b3 82bc 9296 f2bc dba1 e0bc
00000030: 9a75 79bc c03c 7bbc f3fb fc3c 2271 cdbc
00000040: 6bd8 c7bc 06ca a8bc e324 20bd 1cc5 9dbc
00000050: 9d13 f4bc b25b 48bd d446 bfbc 406a 9ebc
00000060: 47bf f13c 2ccf 12bc a6d2 f1bc dae2 a3bc
00000070: 170e d2bc 5270 babc 5e19 0cbd 78e0 b4bc
00000080: 1668 15bd 232c 9f3c 1c82 6dbc bb13 de3c
00000090: b89c 093d d540 bebc 8be9 05bd 260b 023c
000000a0: 8838 813b 0fdc b0bc 25c3 fdbc 9c60 b23c
000000b0: 6afb 8fbc 5503 bbbc 3cb3 03bd 6455 fe3c
000000c0: e207 ec3c 726f fdbc d1ba b6bc fac5 693a
000000d0: 0c5c abbc fdea f9bc 59ef 3cbc dd31 393b
000000e0: 31cb 63bc 6313 f3bc fbad dabb a5fe a0bc
000000f0: 2015 1e3c 135d 71bc a03c adbc 148b a6bc
00000100: 0a5b 093d 63e3 48bc 201b 0abd 6d98 70bc
00000110: cb3b 8dbc 8536 d23c 9b25 673c 6afb bbbc
00000120: 3d24 9c3c 6446 7cbb 11ae e5bc 72e0 13bd
00000130: 6ae8 87bd f874 d1bc cb57 27bd 031d d9bc
00000140: d827 9abc 7456 aabc fcd8 c9bc 342f f5bc
00000150: bdd1 babc eebc f7bc 4b2f d8bc aa21 5ebc
00000160: cfd2 acbc 400f df3c 0a75 07bd 020a 89bc
00000170: f78b 023d c4ff 31bd 6aaa c5bc ad5e da3c
00000180: 3ffe bbbc f9c1 9bbc d87a b63c 5e11 9bbc
00000190: fc61 7b3f 591e 773f 2a43 7d3f 23c1 833f
000001a0: 3cc4 833f 0e62 753f 4184 823f 9387 793f
000001b0: 339d 7b3f 0d4c 7c3f b08d 793f e8e7 793f
000001c0: ed97 7c3f 04a6 7c3f fd2e 843f ce80 7b3f
000001d0: 2d26 7a3f 96e6 7a3f 00f9 773f ab2f 7b3f
000001e0: 5c8d 793f ff84 753f 06d4 7a3f e41e 7b3f
000001f0: 3b47 833f b819 7d3f 9c00 7a3f c366 7b3f
00000200: 5aa0 7a3f 58d3 793f 57ed 793f 87ce 7a3f
00000210: 36ae 773f 056d 823f 2965 7c3f c395 833f
00000220: 7bb0 843f a100 7b3f dd1a 783f 044e 803f
00000230: cc66 7f3f b01e 7b3f 96d2 793f c7c7 823f
00000240: 1b0e 7c3f fe25 7b3f 0ec1 793f 3576 833f
00000250: 37dd 823f f3b1 7a3f 6ecf 7a3f 94c6 7e3f
00000260: 214a 7b3f 5488 793f d0ef 7c3f e570 7f3f
00000270: 3fb0 7c3f 0687 793f c598 7d3f 1464 7b3f
00000280: 6a19 803f 9774 7d3f 6348 7a3f e2bc 7b3f
00000290: e28a 843f 430c 7d3f f76d 773f 17bb 7c3f
000002a0: 8bb2 7b3f 1049 833f a4bb 803f b0d3 7a3f
000002b0: a5e9 813f aabf 7d3f 50f0 793f c389 773f
000002c0: fc38 763f a2de 7a3f caeb 783f 2250 7a3f
000002d0: f8d1 7b3f f71b 7b3f 1326 7a3f 4175 793f
000002e0: d4b5 7a3f 089d 793f 9a16 7a3f c401 7d3f
000002f0: 3da4 7b3f 3e43 833f 1c94 793f e70a 7c3f
00000300: ed71 833f 502c 773f 81f8 7a3f 066f 833f
00000310: bacd 7a3f b3d9 7b3f 76d1 823f 5edb 7b3f
00000320: f6da bb3b 9404 d1ba 51a9 0ebc a641 a2bc
00000330: bb9e be3c 15d4 31bb f035 f43c d427 983c
00000340: b345 bbbb 1111 2ebc 8dee 6d3b bf5a e13b
00000350: e9b4 983a 0b36 a73b 78f0 9b3c 3a65 943b
00000360: 3111 f9bb 142e 1a3c c1fb 71bb 55a4 9fbb
00000370: e752 6d3a 778b b23b 6989 11bc 4ee5 4a3a
00000380: 515e 0d3d 8714 4abb a8a1 16bb 7a26 dfbb
00000390: b1a0 2abc e641 063c 7f2d 513a 8621 a23c
000003a0: 44e5 203c d970 453c 1c92 b5ba e92e 743c
000003b0: 0b26 c2bc d037 373b b65e f3bb 2eb8 91bc
000003c0: 2a6e 50bc 9c00 b2ba c1d0 82bb 203c 82bc
000003d0: 104c 3f3b 449b 42bc 65b3 fcba 875d 0c3d
000003e0: 213f f0bc 0ce5 463a 89ff 74bc 743b c63c
000003f0: 9f3a 50b9 842d 10bc ec0c 4b39 e1c7 61bc

std.constant15 f4 [400, 100]
0.03100021 0.03942662 0.024589846 0.13986252 -0.010850478 0.03814928 -0.077137336 -0.08420121
0.013829791 -0.033419907 -0.033472706 -0.04970305 0.0076337312 0.03725495 -0.06876442 -0.03428013
0.08389701 -0.05305694 -0.053667866 -0.0032399907 0.049390033 -0.03167516 0.10434988 0.0913882
0.0065009156 0.02590103 0.023652174 -0.015214522 0.01717801 -0.005479544 0.07798497 -0.068074524
0.008133889 -0.042784136 -0.017958654 -0.010535363 -0.043177586 -0.09431666 -0.0066825263 0.0054069157
0.08386419 0.10069621 0.013042086 -0.0018672523 -0.0023175217 -0.005378218 -0.045144934 -0.032316886
0.07471564 -0.029895965 0.011094102 -0.039194226 -0.019173797 0.02776465 -0.022082875 0.019984096
-0.007998122 -0.11939219 -0.087741114 -0.041574165 0.030879902 0.04593834 -0.09749886 -0.03709728
0.059036747 0.1331295 0.021218196 -0.005367603 0.07038881 -0.027389307 -0.13988496 -0.0122165615
0.009107304 0.018415017 -0.040999893 -0.02755221 0.036388155 0.09434623 0.040948644 0.009257836
-0.097848274 -0.10377929 0.09937481 -0.0049727946 0.03018621 -0.036750413 -0.06079642 -0.014548298
0.09088206 -0.092445165 0.06895173 0.050493907 -0.052254837 0.0024481588 0.044872273 -0.027501538
0.07454979 -0.031298403 -0.08617979 0.023849612 -0.08710966 0.026725583 0.009219792 -0.051607963
-0.09516003 0.0010221296 -0.12913387 -0.06967142 0.0024357052 0.026527904 0.0010929735 -0.014839629
-0.010314626 0.065489896 0.038001 -0.099679954 0.04071816 -0.061882462 -0.05625038 0.027137417
-0.005729427 -0.027762184 0.02045878 -0.017816907 -0.13839178 0.024513949 0.014218926 -0.031270653
0.029717391 0.07687503 0.039963875 -0.0069778576 0.07973582 -0.16478013 -0.042468194 0.07454736
0.11566527 -0.023346275 0.034613207 0.034796253 0.018851168 0.028407471 -0.020870527 0.043935973
-0.03375694 -0.0594385 -0.0730607 0.07701157 0.03975663 0.034049593 -0.026248926 -0.02968949
-0.03010692 0.025594193 -0.065061845 0.07990996 -0.030725915 -0.009025436 -0.026614117 -0.048830036
0.059243795 0.018683717 0.012205297 0.042290047 -0.108693495 -0.084158115 0.045170248 -0.0036295147
0.038220115 0.0839345 0.00042883976 0.07804253 0.07756973 0.12342438 0.11011541 -0.12457997
0.027741333 0.078608654 0.028365491 0.08470617 0.0037588435 0.1110629 0.083496876 0.014195791
-0.059354015 0.011360319 0.0028518038 -0.061903626 -0.06313323 -0.008761439 -0.035167873 -0.073789254
-0.022027476 0.0034906825 -0.021729317 -0.091508105 -0.058346666 0.02795455 -0.108753264 0.001503081
-0.044615168 0.09209623 0.046151362 -0.00030534973 0.013353811 -0.025286969 -0.094224945 -0.045578513
-0.030060044 0.0012747351 0.006155259 -0.12763514 0.037793282 0.02475992 -0.08250583 0.0014249125
0.07082096 -0.02087263 -0.06084418 -0.003448425 0.047219746 -0.09397691 -0.033195402 0.0040996913
-0.09339052 0.04054123 -0.171653 0.03184547 -0.0025932286 -0.01754096 -0.051389698 -0.05038974
-0.017135037 0.020580435 0.033793196 -0.010908289 0.09564517 0.06625708 0.029072097 0.011373994
-0.032108378 -0.059283715 -0.028626122 0.05539543 -0.015387288 0.027530821 0.043353774 -0.078484505
-0.05317201 0.056036234 0.07883901 -0.0017207668 0.057170134 -0.03685868 0.03448364 0.0392716
00000000: 27f4 fd3c cf7d 213d a570 c93c 1f38 0f3e
00000010: 34c6 31bc 6b42 1c3d 2efa 9dbd af71 acbd
00000020: 5996 623c 50e3 08bd ad1a 09bd 6d95 4bbd
00000030: 6124 fa3b a598 183d 5cd4 8cbd 5269 0cbd
00000040: 32d2 ab3d 3c52 59bd d6d2 5bbd 0656 54bb
00000050: 344d 4a3d d0bd 01bd 64b5 d53d bd29 bb3d
00000060: a205 d53b 662e d43c 34c2 c13c 5546 79bc
00000070: e6b8 8c3c bf8d b3bb 95b6 9f3d a86a 8bbd
00000080: 0144 053c 6b3e 2fbd 071e 93bc 849c 2cbc
00000090: fbda 30bd 1829 c1bd 18f9 dabb 7f2c b13b
000000a0: fdc0 ab3d d139 ce3d 79ae 553c 97be f4ba
000000b0: 90e1 17bb c33b b0bb e5e9 38bd b65e 04bd
000000c0: 8304 993d 62e8 f4bc 09c4 353c 208a 20bd
000000d0: 5e12 9dbc b172 e33c 25e7 b4bc b0b5 a33c
000000e0: 8e0a 03bc e483 f4bd 9db1 b3bd ac49 2abd
000000f0: d9f7 fc3c d729 3c3d 7bad c7bd 51f3 17bd
00000100: 84d0 713d 1a53 083e c8d1 ad3c b8e2 afbb
00000110: 0228 903d 8a5f e0bc 013e 0fbe f927 48bc
00000120: cd36 153c 17db 963c 81ef 27bd 2cb5 e1bc
00000130: bf0b 153d 9938 c13d c4b9 273d 2eae 173c
00000140: ad64 c8bd 3d8a d4bd 0585 cb3d d3f2 a2bb
00000150: 1249 f73c 9a87 16bd ab05 79bd fc5b 6ebc
00000160: 6020 ba3d e453 bdbd 9136 8d3d b3d2 4e3d
00000170: 2b09 56bd 4a71 203b fdcb 373d e84a e1bc
00000180: 8fad 983d c132 00bd 087f b0bd 4360 c33c
00000190: 8d66 b2bd 9cef da3c 9c0e 173c df62 53bd
000001a0: 43e3 c2bd faf8 853a ab3b 04be e4af 8ebd
000001b0: 5aa0 1f3b 0c51 d93c 1b42 8f3a ea21 73bc
000001c0: adfe 28bc 911f 863d f0a6 1b3d 0125 ccbd
000001d0: 16c8 263d 7778 7dbd cc66 66bd 4a4f de3c
000001e0: ebbd bbbb 856d e3bc 2c99 a73c c3f4 91bc
000001f0: 93b6 0dbe 7ad1 c83c 80f6 683c a815 00bd
00000200: e371 f33c a870 9d3d 29b1 233d 83a6 e4bb
00000210: 894c a33d 1fbc 28be 21f3 2dbd 49ac 983d
00000220: eae1 ec3d b040 bfbc 94c6 0d3d 8486 0e3d
00000230: c46d 9a3c c9b6 e83c abf8 aabc 35f6 333d
00000240: b844 0abd c975 73bd d9a0 95bd 3eb8 9d3d
00000250: d9d7 223d 9677 0b3d fd07 d7bc 6037 f3bc
00000260: caa2 f6bc eaaa d13c 253f 85bd d5a7 a33d
00000270: eab4 fbbc 6cdf 13bc d905 dabc 0102 48bd
00000280: 9fa9 723d 980e 993c baf8 473c 5438 2d3d
00000290: b29a debd 175b acbd 7004 393d 27dd 6dbb
000002a0: b28c 1c3d dae5 ab3d e6d5 e039 c3d4 9f3d
000002b0: e1dc 9e3d ecc5 fc3d 3084 e13d c923 ffbd
000002c0: cb41 e33c 93fd a03d bf5e e83c 6e7a ad3d
000002d0: ee56 763b f274 e33d 6900 ab3d 7795 683c
000002e0: 321d 73bd a220 3a3c 54e5 3a3b a88e 7dbd
000002f0: ff4b 81bd 238c 0fbc 300c 10bd d21e 97bd
00000300: f772 b4bc efc3 643b ae01 b2bc 9a68 bbbd
00000310: eafc 6ebd f100 e53c 08ba debd 0703 c53a
00000320: 65be 36bd f39c bc3d 3609 3d3d 5917 a0b9
00000330: f1c9 5a3c 9e26 cfbc 02f9 c0bd 89b0 3abd
00000340: 7b40 f6bc 0315 a73a 0eb2 c93b c9b2 02be
00000350: 21cd 1a3d 51d5 ca3c d1f8 a8bd 21c4 ba3a
00000360: 940a 913d 14fd aabc bf37 79bd f9fe 61bb
00000370: 7e69 413d f776 c0bd e7f7 07bd b456 863b
00000380: 8743 bfbd 900e 263d cec5 2fbe 6570 023d
00000390: 28f3 29bb 0fb2 8fbc 017e 52bd 7965 4ebd
000003a0: c75e 8cbc 4d98 a83c bc6a 0a3d aeb8 32bc
000003b0: 9de1 c33d cbb1 873d 9b28 ee3c fd59 3a3c
000003c0: 1384 03bd 7bd3 72bd 5481 eabc 52e6 623d
000003d0: f71a 7cbc 5188 e13c ba93 313d 7cbc a0bd
000003e0: e5ca 59bd 4086 653d 5976 a13d 5a8b e1ba
000003f0: 3b2b 6a3d 21f9 16bd b83e 0d3d 42db 203d

std.constant16 f4 [400, 13]
0.009986944 -0.11388838 -0.10564554 0.044738974 0.088126816 -0.033763926 0.07046128 0.07340753
0.009990042 0.037822068 0.083828926 -0.0156536 -0.035043024 0.036017925 -0.15384458 0.04966249
-0.13724884 -0.14978313 0.015979785 -0.15271652 -0.10927811 -0.12581882 0.043061875 -0.045345902
-0.061566807 -0.0476838 -0.057522517 0.02394286 0.06790541 -0.13096155 0.041685857 -0.041279797
0.04928326 -0.034173477 -0.042605944 0.034773003 -0.12741631 -0.102811486 0.08705338 -0.07104779
-0.05491351 0.09548935 -0.006779758 0.03326827 0.13011675 -0.014557715 0.12185209 0.081896484
-0.06866274 0.033329617 0.021124655 -0.024273777 0.063829534 0.052958917 -0.035057653 -0.017702201
0.0026770358 0.044066224 0.11507134 0.051047184 -0.0013397314 -0.033692606 -0.051334266 0.0034604762
0.09775197 -0.13072565 -0.01609877 0.059427366 -0.09667924 -0.14463481 0.040673595 0.063849196
-0.036875922 -0.15621921 -0.1388225 0.063312605 -0.12474308 -0.16587657 0.14234965 -0.0389913
0.07406814 0.055127732 0.04448697 -0.07550522 0.115737006 -0.012769041 -0.06550275 0.018973555
-0.09553906 -0.08611713 -0.043459643 -0.115117915 0.01868038 0.061474666 -0.07022399 0.06614216
0.06517978 0.07882343 -0.121036015 0.027458278 0.05660926 0.02807276 -0.07875687 -0.015097964
-0.029342046 -0.0065721204 -0.13396247 0.009739032 -0.037764892 -0.041248124 0.054092664 0.049340416
-0.004914639 -0.106794514 0.07200423 0.034299593 0.040845096 -0.1358051 0.076225854 0.017867252
-0.050456423 -0.04916915 -0.036889058 0.0050929696 -0.117157035 0.10180265 -0.09282273 0.043883942
-0.017787118 -0.108183324 -0.027402122 0.0065745474 -0.04523219 -0.048297066 -0.09933405 0.044886738
0.025294265 0.059278846 0.027339784 -0.0038982355 0.012162821 0.04061961 0.03106236 -0.09017175
-0.051777378 0.012481906 -0.12137099 0.09156667 -0.011974917 -0.14045474 -0.06564751 0.07599818
-0.002130978 -0.06385923 0.007485787 -0.025922278 -0.011317441 0.07802502 -0.13538784 0.07541659
-0.041767776 -0.12512475 -0.08920279 0.07949643 0.01884618 -0.075195156 -0.016334683 0.017834213
-0.007650369 -0.032450244 0.0020160119 0.033764347 0.012626985 0.012483674 -0.120683625 0.02206253
0.0103979055 -0.104474515 -0.13523749 -0.06090149 -0.082041025 -0.11583196 0.106488705 0.116960295
-0.0033032678 -0.066654816 0.09679325 -0.011145531 0.15073016 -0.023854978 -0.00279745 -0.016793055
0.025862847 0.06639486 0.11817266 0.036210533 -0.061630875 -0.09915755 -0.029454712 -0.015534314
0.033310562 0.06925195 -0.05958374 0.049055036 0.08808726 -0.09950475 0.059832044 -0.04012869
-0.0013917646 -0.122656845 0.015335008 -0.03553611 -0.0022911443 -0.04643482 0.0047476566 -0.08112592
-0.13241938 -0.00813714 -0.12651102 0.094631135 0.036393557 -0.03847708 -0.041468605 0.015021865
-0.13727425 0.07682766 -0.112303205 0.076427095 -0.13231923 -0.13819909 -0.00015283813 -0.09974145
-0.116310544 0.06298836 -0.08751915 0.05366214 -0.0477004 0.0060416325 -0.017701276 -0.13887662
-0.068162724 -0.011661924 -0.13206615 -0.0750911 -0.09552991 0.027950522 0.03628033 0.0832028
0.04704144 -0.08374681 0.07222171 -0.045099545 -0.048113007 0.044343807 -0.010177635 -0.08128095
00000000: 47a0 233c 503e e9bd b05c d8bd 3740 373d
00000010: d57b b43d 0b4c 0abd 014e 903d b056 963d
00000020: 46ad 233c 50eb 1a3d 80ae ab3d fb3b 80bc
00000030: 4689 0fbd 8887 133d 6f89 1dbe e56a 4b3d
00000040: f68a 0cbe c060 19be 0ae8 823c b861 1cbe
00000050: 34cd dfbd a6d6 00be a661 303d a0bc 39bd
00000060: 7a2d 7cbd 1750 43bd bb9c 6bbd d123 c43c
00000070: fe11 8b3d c91a 06be cabe 2a3d 0115 29bd
00000080: 3edd 493d 7df9 0bbd 9283 2ebd 236e 0e3d
00000090: 6c79 02be d48e d2bd 0b49 b23d 8181 91bd
000000a0: fdec 60bd ec8f c33d bb28 debb 4f44 083d
000000b0: 533d 053e 7b83 6ebc 978d f93d 58b9 a73d
000000c0: 0d9f 8cbd a384 083d 9d0d ad3c cdd9 c6bc
000000d0: 0fb9 823d 73eb 583d 9d98 0fbd 3504 91bc
000000e0: 3571 2f3b c97e 343d 86aa eb3d da16 513d
000000f0: ed99 afba 4201 0abd e143 52bd 28c9 623b
00000100: 2f32 c83d f2dc 05be 91e1 83bc 1c6a 733d
00000110: c4ff c5bd 261b 14be 5b99 263d 5ec3 823d
00000120: 350b 17bd eef7 1fbe 7c27 0ebe 0aaa 813d
00000130: 4d79 ffbd 8cdb 29be 1bc4 113e 57b5 1fbd
00000140: 09b1 973d 9ecd 613d f837 363d 7ba2 9abd
00000150: 8607 ed3d 3d35 51bc 4e26 86bd 6e6e 9b3c
00000160: fca9 c3bd 2e5e b0bd bd02 32bd f1c2 ebbd
00000170: 9907 993c dccc 7b3d 98d1 8fbd 8a75 873d
00000180: fa7c 853d 2e6e a13d bbe1 f7bd 2ff0 e03c
00000190: 1ddf 673d d8f8 e53c 484b a1bd 735d 77bc
000001a0: bb5e f0bc f15a d7bb 752d 09be 7690 1f3c
000001b0: 5caf 1abd cbf3 28bd 4590 5d3d 2d19 4a3d
000001c0: fb0a a1bb 15b7 dabd f476 933d bb7d 0c3d
000001d0: 304d 273d 7e10 0bbe 4d1c 9c3d 585e 923c
000001e0: 65ab 4ebd 9765 49bd fb18 17bd ede2 a63b
000001f0: 07f0 efbd e87d d03d d819 bebd a6bf 333d
00000200: 4ab6 91bc 388f ddbd 6a7a e0bc 4d6f d73b
00000210: 6445 39bd 25d3 45bd a76f cbbd 28db 373d
00000220: eb35 cf3c 60ce 723d aff7 df3c 8a79 7fbb
00000230: 9246 473c c060 263d 7e76 fe3c f7ab b8bd
00000240: 8414 54bd e980 4c3c 5b91 f8bd 4e87 bb3d
00000250: 7132 44bc 5ed3 0fbe 3472 86bd efa4 9b3d
00000260: e1a7 0bbb a1c8 82bd 554b f53b f55a d4bc
00000270: ca6c 39bc 95cb 9f3d 1ca3 0abe 0374 9a3d
00000280: b014 2bbd b420 00be f4af b6bd 06cf a23d
00000290: 4e63 9a3c ebff 99bd 50d0 85bc 0e19 923c
000002a0: f2af fabb 8cea 04bd 111f 043b 7c4c 0a3d
000002b0: 6ae1 4e3c 5388 4c3c fa28 f7bd 7bbc b43c
000002c0: fa5b 2a3c bcf6 d5bd b27b 0abe d773 79bd
000002d0: 2005 a8bd 4f39 edbd c016 da3d e188 ef3d
000002e0: a37b 58bb 5282 88bd 8a3b c63d bf9b 36bc
000002f0: 0259 1a3e 846b c3bc 6c55 37bb 9791 89bc
00000300: 52de d33c 07fa 873d 8204 f23d 7f51 143d
00000310: a870 7cbd 1d13 cbbd 024b f1bc a383 7ebc
00000320: a870 083d f7d3 8d3d 140e 74bd efed 483d
00000330: 1867 b43d 25c9 cbbd 7212 753d fb5d 24bd
00000340: df6b b6ba 8333 fbbd af3f 7b3c 508e 11bd
00000350: 0627 16bb 7032 3ebd 3b92 9b3b 5925 a6bd
00000360: f298 07be a451 05bc 1b8c 01be f8cd c13d
00000370: 6911 153d 259a 1dbd fcda 29bd 451e 763c
00000380: 9f91 0cbe d257 9d3d 39ff e5bd cf85 9c3d
00000390: b17e 07be 1084 0dbe 2c43 20b9 3f45 ccbd
000003a0: 3934 eebd 0b00 813d 3d3d b3bd d5cc 5b3d
000003b0: 7f61 43bd e3f8 c53b 4402 91bc ac35 0ebe
000003c0: e698 8bbd a811 3fbc 593c 07be 5dc9 99bd
000003d0: 2fa5 c3bd 7ef8 e43c af9a 143d 3b66 aa3d
000003e0: 86ae 403d 7383 abbd fae8 933d 4dba 38bd
000003f0: 2512 45bd daa1 353d 18c0 26bc a076 a6bd
